mnist_conv_autoencoder_weights.pth (torch, 30932 bytes, 7 tensors)

encoder.0.weight f4 [8, 1, 5, 5]
-0.10761182 0.08755635 0.039858483 0.10766057 -0.093941495 0.08992137 0.06455555 -0.10118765
0.098324105 -0.063140914 0.016011413 -0.119867206 0.028003763 0.17275243 0.0034387647 -0.131522
-0.10078742 0.07326941 -0.014267594 -0.0716146 0.045950517 -0.074693024 0.11177828 0.21778993
0.07184479 0.0020548338 0.117843516 -0.20070583 -0.2430892 -0.12289802 0.09885538 0.087730885
-0.15386613 0.03353868 0.07530994 -0.016599488 -0.04540417 0.111043066 -0.25054142 -0.25146723
-0.032524914 -0.09445713 -0.15381373 -0.32199356 -0.22068098 -0.18291493 0.15778676 -0.13810071
-0.24079783 -0.070132256 0.12826738 0.2077535 -0.1723003 -0.11931832 -0.042270705 -0.13561963
0.032956146 -0.25708714 -0.13615693 -0.15364434 -0.08077167 -0.17505513 0.121894 0.023975536
-0.14019659 0.027447717 -0.19176571 -0.21054907 -0.13859528 -0.17311236 0.20679106 -0.10592935
-0.0028452412 0.14403683 0.08166243 0.16615818 0.20092335 0.022639446 -0.24411687 -0.16925445
-0.15812013 0.07983142 0.1086219 0.0017645083 0.100527786 -0.09981595 0.007268757 -0.20964742
0.14302784 -0.0735044 0.0493638 -0.018528566 -0.19981068 0.14166117 0.05195132 0.020334583
0.07597648 -0.16401014 0.07751758 0.0669489 0.14067438 -0.21380712 0.15280339 0.14698495
0.06973254 -0.15632477 -0.2037319 0.13719918 0.13866185 0.10321787 0.079884864 0.064178854
0.1884779 -0.046090417 0.01983438 0.1498952 0.06389034 0.15931138 0.15957984 -0.14393625
-0.07092356 0.15699004 -0.16825782 0.18228011 0.09804575 0.18816507 0.19532046 -0.13841783
0.14861661 0.03279015 0.18668333 -0.14150088 0.043864653 0.06913509 -0.1661923 0.12085481
-0.16902132 0.16964866 0.14465451 -0.011493413 -0.098449446 -0.059134297 0.118177064 0.12034337
0.05885059 -0.06451205 0.038357385 0.07444028 -0.15502223 -0.09474334 -0.059640974 0.14714202
0.08730176 0.12413166 0.14464009 0.0962068 0.10400978 0.20374565 0.0031132328 0.006135773
-0.0025703504 0.018373951 -0.18900575 -0.15316981 0.19424817 -0.06722222 -0.14127246 -0.22461724
-0.09108236 -0.094350025 -0.08466032 0.060910363 -0.17477179 -0.06370954 -0.10928287 -0.14874308
0.053082313 0.0048768506 -0.08849072 -0.031173354 0.06303686 0.15178324 0.22448419 0.06275563
0.16712235 0.014058986 -0.05567758 0.074789904 0.082086354 -0.1345533 0.14458025 0.07690283
0.022460753 0.12154218 -0.05897425 0.0838539 -0.06189155 0.058421988 0.08783584 -0.030965049
00000000: 9663 dcbd be50 b33d a642 233d 257d dc3d
00000010: 6664 c0bd b228 b83d b335 843d 783b cfbd
00000020: 265e c93d 0650 81bd 5e2a 833c f07c f5bd
00000030: 2668 e53c 03e6 303e e65c 613b b4ad 06be
00000040: a369 cebd 460e 963d a0c2 69bc adaa 92bd
00000050: 9c36 3c3d a8f8 98bd 03ec e43d 5304 5f3e
00000060: 5c23 933d 64aa 063b f157 f13d d485 4dbe
00000070: 60ec 78be f5b1 fbbd b174 ca3d 40ac b33d
00000080: 158f 1dbe db5f 093d 193c 9a3d a6fb 87bc
00000090: b9f9 39bd 8c6a e33d f746 80be 50c0 80be
000000a0: d838 05bd bd72 c1bd 5981 1dbe 57dc a4be
000000b0: 32fa 61be 0d4e 3bbe da92 213e 466a 0dbe
000000c0: b593 76be 80a1 8fbd 8658 033e 55bd 543e
000000d0: 7d6f 30be 2a5d f4bd 0c24 2dbd dfdf 0abe
000000e0: 06fd 063d eda0 83be b96c 0bbe f154 1dbe
000000f0: 9e6b a5bd a741 33be 90a3 f93d 5868 c43c
00000100: b28f 0fbe 09da e03c 3b5e 44be 2d9a 57be
00000110: eceb 0dbe 5e44 31be 09c1 533e 7df1 d8bd
00000120: 3a77 3abb 647e 133e a23e a73d 5f25 2a3e
00000130: dabe 4d3e 5c76 b93c c6f9 79be 0a51 2dbe
00000140: 3eea 21be a87e a33d 2975 de3d 1347 e73a
00000150: 83e1 cd3d 4e6c ccbd c12e ee3b d0ad 56be
00000160: e475 123e 7a89 96bd b231 4a3d 38c9 97bc
00000170: 2c9b 4cbe a00f 113e e8ca 543d b694 a63c
00000180: 8f99 9b3d 46f2 27be 89c1 9e3d 811c 893d
00000190: f20c 103e 41f0 5abe 7e78 1c3e 3983 163e
000001a0: efcf 8e3d 9a13 20be 189f 50be f17d 0c3e
000001b0: 5ffd 0d3e e463 d33d ad9a a33d 3470 833d
000001c0: 5a00 413e 4ec9 3cbd b67b a23c 217e 193e
000001d0: f0d8 823d 8622 233e e668 233e 0664 13be
000001e0: 5f40 91bd ffc1 203e c74b 2cbe a3a7 3a3e
000001f0: 36cc c83d 58ae 403e 1602 483e 67bd 0dbe
00000200: f42e 183e f74e 063d ea29 3f3e 9be5 10be
00000210: 6cab 333d b396 8d3d 502e 2abe ba82 f73d
00000220: ed13 2dbe 61b8 2d3e 5020 143e de4e 3cbc
00000230: dd9f c9bd ce36 72bd d106 f23d 9676 f63d
00000240: 510d 713d e51e 84bd a21c 1d3d 2574 983d
00000250: 26be 1ebe cc08 c2bd 184a 74bd 66ac 163e
00000260: 44cb b23d bd38 fe3d 881c 143e 1208 c53d
00000270: 1403 d53d b3a2 503e 6107 4c3b 980e c93b
00000280: 5373 28bb f884 963c b98a 41be 8cd8 1cbe
00000290: fee8 463e ceab 89bd baa9 10be 1002 66be
000002a0: 6389 babd 963a c1bd 6462 adbd 257d 793d
000002b0: 60f7 32be 267a 82bd b3cf dfbd 1b50 18be
000002c0: d76c 593d fdcd 9f3b 9f3a b5bd 435f ffbc
000002d0: 7819 813d 116d 1b3e 2fdf 653e 0686 803d
000002e0: 1f22 2b3e a957 663c 2d0e 64bd 732b 993d
000002f0: e41c a83d 57c8 09be d80c 143e 3b7f 9d3d
00000300: 9dff b73c 1beb f83d fc8e 71bd 98bb ab3d
00000310: fe81 7dbd e54b 6f3d 47e3 b33d 6aaa fdbc

encoder.0.bias f4 [8]
-0.14492786 0.036681335 -0.090750374 0.010052596 0.0027563283 -0.120543554 0.081389956 -0.10146906
00000000: f867 14be 2b3f 163d 55db b9bd a5b3 243c
00000010: 84a3 343b 8adf f6bd c7af a63d 03cf cfbd

encoder.2.weight f4 [16, 8, 5, 5]
0.021060072 -0.06665563 -0.048173882 -0.04136414 -0.049066663 -0.030504497 0.059109658 -0.06363987
-0.041560974 -0.02724388 -0.033333212 -0.05572133 -0.020928586 -0.040058173 0.018977027 0.0657572
-0.04872907 -0.027962437 -0.040175617 -0.014844667 -0.05355954 0.0687346 -0.05045286 0.02781878
0.0432678 0.06959993 -0.020863337 -0.041886456 0.02977188 -0.04290723 0.043289952 0.050742116
-0.0073401723 -0.05094211 -0.048986513 -0.0199774 0.059456393 0.0153379915 0.0032672945 0.0007856659
0.05403055 -0.04763291 -0.042889863 -0.052481774 -0.06510805 0.07009362 -0.013042411 0.060776647
-0.018646045 0.025429929 -0.027100094 -0.06106845 0.06185018 0.022866156 -0.05108993 0.035781726
-0.047292378 -0.05250643 -0.029803067 0.013791889 -0.05226244 -0.049681325 -0.028792255 0.05238164
-0.05261339 0.057163727 -0.0051263105 0.03935659 -0.04798991 0.00537145 0.048301093 0.02237662
0.049468182 -0.0565533 0.00977216 -0.066848904 0.009345812 0.061152052 0.045145467 0.03332723
0.03813472 0.037803184 0.05298046 0.025035288 -0.04359169 0.0036519556 -0.04085245 -0.014727339
0.03122433 -0.03907568 0.057178568 -0.051109996 -0.045152992 -0.00560793 -0.01409663 -0.017029915
-0.06446195 0.048440058 -0.011629389 -0.047867384 -0.042822484 -0.042323954 0.04455213 0.0040680715
0.06843564 -0.06512509 0.01204915 -0.053372715 0.03351071 0.060115032 -0.009834416 0.009628362
0.013520087 -0.0030102576 -0.05601598 -0.03878475 -0.024449171 -0.0671943 -0.05857521 -0.010363499
-0.057818614 0.047142703 -0.023464626 -0.012702431 -0.056435898 0.024456987 0.04654201 -0.039706532
0.024051888 0.05689135 0.042183693 0.04205515 0.06984592 -0.0071055847 0.012903397 0.06060997
-0.053806428 -0.037549753 -0.049570728 -0.045914605 0.04996432 0.041984633 0.061978 0.023747444
0.071509704 0.043728106 -0.014100918 -0.060312126 0.050694775 0.034291968 -0.06304874 -0.03204138
-0.065046504 0.019335987 -0.007612806 0.079653904 0.0003458407 0.04902284 -0.0046726824 0.053594146
-0.034446888 -0.010239014 -0.0017085281 0.04082507 -0.03533286 -0.050287023 -0.065601565 0.06523127
0.06896751 -0.053485677 -0.06271825 0.05926317 0.046285924 -0.009902998 -0.0053918697 0.068534754
0.040438563 -0.060072664 0.00931457 -0.045183904 0.051845875 0.04480594 -0.022322819 -0.0583851
0.056982346 -0.024275778 0.036921043 -0.06636858 0.0063745007 0.0073261377 0.008744599 0.02557755
-0.009821057 0.017730737 -0.06602965 -0.0057855155 -0.04421231 -0.037359927 0.021773204 -0.05106468
0.065358125 0.039204735 -0.016111813 0.06652567 0.0482551 -0.01050273 0.023020653 0.011504155
0.031638443 -0.037033718 0.06810231 -0.0033833429 0.04025856 0.038258485 -0.011015512 -0.014662637
-0.058058042 0.029667562 0.054189615 -0.02543669 0.066173054 -0.040292308 -0.06367599 -0.07199904
-0.0045449245 -0.052563947 0.027659485 -0.046203893 0.011976694 0.018573234 -0.020607261 0.0052859434
0.01384236 0.0862587 -0.022291668 -0.0072974213 -0.051397044 -0.02570435 0.08162612 0.019491605
-0.058476765 -0.004102467 -0.056057874 0.060089495 0.032429453 0.036426414 0.010021973 -0.034967214
-0.071187824 -0.046512242 0.058805265 0.04755427 0.06133049 0.054554094 0.08323297 0.06691539
00000000: 2c86 ac3c bf82 88bd fa51 45bd 726d 29bd
00000010: 20fa 48bd 91e4 f9bc f81c 723d 9f55 82bd
00000020: d73b 2abd 8f2e dfbc 6888 08bd 0d3c 64bd
00000030: 6d72 abbc 0a14 24bd b675 9b3c b6ab 863d
00000040: 2298 47bd 7b11 e5bc 308f 24bd 0c37 73bc
00000050: 4061 5bbd bac4 8c3d a8a7 4ebd 36e4 e33c
00000060: 9439 313d 688a 8e3d 97e9 aabc 2291 2bbd
00000070: 28e4 f33c 7ebf 2fbd ce50 313d f7d6 4f3d
00000080: d485 f0bb ada8 50bd 15a6 48bd a5a7 a3bc
00000090: 8c88 733d 334c 7b3c 1b20 563b 25f5 4d3a
000000a0: 234f 5d3d ba1a 43bd 48ad 2fbd 21f7 56bd
000000b0: 5f57 85bd 3e8d 8f3d d6af 55bc eff0 783d
000000c0: 97bf 98bc 6d52 d03c 0401 debc e922 7abd
000000d0: 9d56 7d3d ce51 bb3c ad43 51bd dc8f 123d
000000e0: a7b5 41bd fb10 57bd 9025 f4bc 60f7 613c
000000f0: 2411 56bd a57e 4bbd bcdd ebbc 218e 563d
00000100: 2381 57bd 8324 6a3d 9cfa a7bb 6034 213d
00000110: 1191 44bd fd02 b03b 5ed7 453d 2c4f b73c
00000120: 269f 4a3d 6fa4 67bd 691b 203c 14e8 88bd
00000130: 2d1f 193c 937a 7a3d 74ea 383d 2282 083d
00000140: 2733 1c3d 83d7 1a3d 0a02 593d ce16 cd3c
00000150: 338d 32bd a655 6f3b e654 27bd f04a 71bc
00000160: 2bca ff3c d20d 20bd 1334 6a3d b758 51bd
00000170: 58f2 38bd bac2 b7bb 8df5 66bc 5282 8bbc
00000180: a004 84bd 1569 463d 3189 3ebc 9710 44bd
00000190: a166 2fbd e25b 2dbd 4b7c 363d 754d 853b
000001a0: fc27 8c3d 4e60 85bd cc69 453c 599d 5abd
000001b0: 8742 093d 2e3b 763d 8820 21bc 47c0 1d3c
000001c0: 5b83 5d3c be47 45bb 0371 65bd c2dc 1ebd
000001d0: a149 c8bc 2a9d 89bd 8fec 6fbd aacb 29bc
000001e0: 36d3 6cbd b518 413d e338 c0bc db1d 50bc
000001f0: 5429 67bd 055a c83c d6a2 3e3d 51a3 22bd
00000200: 7708 c53c e706 693d cfc8 2c3d 0542 2c3d
00000210: 610b 8f3d f7d5 e8bb c568 533c 2942 783d
00000220: 2164 5cbd c5cd 19bd ad0a 4bbd f410 3cbd
00000230: 63a7 4c3d 14f8 2b3d a5dc 7d3d 008a c23c
00000240: ae73 923d 3e1c 333d 8907 67bc d909 77bd
00000250: 53a5 4f3d bc75 0c3d b31f 81bd d23d 03bd
00000260: 1a37 85bd 8166 9e3c d874 f9bb 9621 a33d
00000270: f451 b539 2ccc 483d 4d1d 99bb 8985 5b3d
00000280: 2e18 0dbd 8ac1 27bc b1f0 dfba 3038 273d
00000290: 30b9 10bd c4f9 4dbd 1d5a 86bd f997 853d
000002a0: d63e 8d3d cc13 5bbd 6d72 80bd f0bd 723d
000002b0: 4f96 3d3d 2f40 22bc 48ae b0bb f35b 8c3d
000002c0: e8a2 253d c10e 76bd 239c 183c c212 39bd
000002d0: 575c 543d 6f86 373d 58de b6bc 3725 6fbd
000002e0: 5266 693d ffdd c6bc 853a 173d 40ec 87bd
000002f0: 30e1 d03b 1910 f03b 8245 0f3c 0388 d13c
00000300: 80e8 20bc 0d40 913c 8e3a 87bd 6c94 bdbb
00000310: f817 35bd b906 19bd b85d b23c 3329 51bd
00000320: 7bda 853d 2595 203d ecfc 83bc 9c3e 883d
00000330: 24a7 453d a413 2cbc cf95 bc3c ec7b 3c3c
00000340: 5097 013d abb0 17bd 3979 8b3d 13bb 5dbb
00000350: 29e6 243d eeb4 1c3d 687a 34bc 8f3b 70bc
00000360: 45ce 6dbd 6309 f33c eef5 5d3d 9b60 d0bc
00000370: bd85 873d 8c09 25bd 8f68 82bd 3c74 93bd
00000380: 97ed 94bb 4b4d 57bd 2596 e23c 4b40 3dbd
00000390: e539 443c e526 983c 8fd0 a8bc b535 ad3b
000003a0: 11cb 623c 67a8 b03d 049d b6bc 351f efbb
000003b0: b585 52bd ee91 d2bc 982b a73d dcac 9f3c
000003c0: 5585 6fbd fd6d 86bb f19c 65bd 6720 763d
000003d0: bfd4 043d dd33 153d 3433 243c c839 0fbd
000003e0: ecca 91bd 9f83 3ebd cadd 703d 44c8 423d
000003f0: ae35 7b3d 1d74 5f3d 0c76 aa3d f00a 893d

encoder.2.bias f4 [16]
-0.011113372 -0.0045060245 0.032439083 0.15603785 -0.012026658 0.042263124 0.034263086 0.03618915
-0.057159226 0.029069802 0.026263876 0.041773707 0.0952359 -0.045578826 0.0015350361 -0.01351207
00000000: dc14 36bc 46a7 93bb d8de 043d 63c8 1f3e
00000010: 760b 45bc 191c 2d3d 7357 0c3d 133b 143d
00000020: cb1f 6abd cb23 ee3c 5727 d73c e81a 2b3d
00000030: 0a0b c33d ddb0 3abd 4433 c93a bb61 5dbc

decoder.0.weight f4 [16, 8, 5, 5]
-0.012025471 0.026769472 0.01978514 0.009992673 -0.053072058 -0.0449819 0.029348992 0.026831858
-0.04497005 -0.067393884 -0.017770628 0.03276657 -0.042226285 -0.021907434 0.03198712 0.0049596922
-0.022045651 -0.05221855 -0.059131265 -0.060355436 0.029511578 0.04498471 -0.024974111 -0.013540085
0.048152562 0.038114868 -0.013736673 -0.06733043 -0.04780856 0.029559156 0.052933324 -0.00624361
-0.07050145 0.05272467 0.02129886 -0.044550065 0.03422045 0.05526378 0.047729686 0.06747368
-0.0020124593 0.059365727 0.012400053 0.045780193 0.062790684 -0.06521184 -0.052581098 -0.0053183557
0.062241208 0.04704879 -0.035912756 0.073081814 0.044609044 -0.015250789 -0.02342556 0.032618202
-0.024810448 0.041844904 -0.064867735 0.025835019 -0.033136543 0.011487075 -0.057450652 0.019988468
-0.017842064 -0.048801806 -0.057215247 -0.04545209 0.052340176 0.07547343 0.05179299 -0.04549194
0.062077977 -0.040609255 0.025762655 0.050193798 0.03204665 -0.048938036 -0.06628591 0.03735189
-0.040521067 0.061576728 -0.055481125 -0.033338457 -0.06779112 -0.052122343 0.054537535 -0.029181551
0.06431272 -0.023503773 0.0529638 0.050799984 0.06325121 0.06868533 0.022698216 -0.06341572
-0.0004992396 -0.047546353 -0.050836973 -0.037469387 0.018992735 0.024675012 0.022295738 -0.05142711
0.04388417 -0.05972821 -0.06341781 -0.053365793 0.018052662 0.056440905 0.06683897 0.024342276
-0.060535014 -0.020956948 -0.03111996 5.417052e-05 0.0422446 -0.009475931 0.0011375622 -0.029570827
-0.019114964 0.027787182 -0.0027142644 -0.060883977 0.031956304 -0.0021223568 0.017362852 -0.05610741
0.023583096 0.023296166 -0.036112733 0.064406976 0.039457683 -0.038473845 0.05748379 -0.060606465
0.058632515 0.0541541 -0.06781576 0.06845371 0.018718868 0.020799357 0.023523849 -0.06205693
-0.0096914265 0.00839681 0.022447497 0.032341063 0.03482472 0.017787416 -0.034189757 0.004077875
0.06341385 0.05649536 0.06767729 0.04181019 0.049796138 0.04879922 0.04396186 0.06256196
0.039946005 -0.048785716 -0.044455905 -0.0073268386 0.06770309 0.060461048 -0.023121318 0.034419708
-0.04447661 -0.040473197 0.05508205 0.058565598 -0.052062217 0.038353223 -0.0017323485 -0.022164682
-0.050001595 -0.033180375 0.021099605 -0.032125827 0.026472127 -0.07013982 -0.0032177938 0.0071240254
0.03140152 -0.06263686 0.047576748 0.047290497 0.049353763 0.05112158 0.02395627 0.027280882
-0.026362905 -0.026509514 0.012902185 0.04965055 -0.00880613 -0.06058532 0.03894286 0.0701272
0.009463472 -0.04250798 -0.06422548 0.005318437 0.023691515 -0.006237209 0.0066166334 -0.011409733
-0.059643283 0.045381233 -0.027637813 -0.0124499705 0.046435136 0.04440225 0.014504139 -0.015886752
-0.02893885 -0.060862616 -0.051220596 0.007162796 -0.026606556 0.032674164 0.0054932176 0.031243104
0.018818686 -0.01963122 -0.03696757 -0.033275764 -0.016754946 -0.053662088 0.05694358 0.046342682
-0.045253903 0.056281365 -0.051357843 -0.011547937 -0.064952254 -0.012924638 0.051401015 0.0016132161
0.028446797 0.049096737 -0.050615236 -0.035247307 -0.054518398 0.06440569 0.06006799 0.07453239
-0.057094365 0.037974957 -0.05829437 0.010444843 -0.069671005 0.05503486 -0.08794347 -0.08293071
00000000: 7b06 45bc a74b db3c 7214 a23c 4fb8 233c
00000010: 1662 59bd f13e 38bd 4c6d f03c 7cce db3c
00000020: 8432 38bd ce05 8abd b593 91bc 3d36 063d
00000030: 78f5 2cbd 3877 b3bc ed04 033d ea84 a23b
00000040: 1599 b4bc 1ee3 55bd a033 72bd 4337 77bd
00000050: 44c2 f13c e341 383d 8296 ccbc 3cd7 5dbc
00000060: 9f3b 453d 561e 1c3d c80f 61bc 89e4 89bd
00000070: e9d2 43bd 0b26 f23c 9dd0 583d 3297 ccbb
00000080: 1063 90bd d3f5 573d f27a ae3c 217a 36bd
00000090: be2a 0c3d 465c 623d 3480 433d a42f 8a3d
000000a0: 77e3 03bb 7a29 733d 9829 4b3c 0384 3b3d
000000b0: 6798 803d c98d 85bd 475f 57bd 9a45 aebb
000000c0: a3f0 7e3d 3bb6 403d 4119 13bd ebab 953d
000000d0: f9b7 363d 72de 79bc f6e6 bfbc aa9a 053d
000000e0: 483f cbbc 9065 2b3d 60d9 84bd f6a3 d33c
000000f0: 2fba 07bd 4934 3c3c 6051 6bbd dbbe a33c
00000100: 8529 92bc 67e4 47bd 895a 6abd f92b 3abd
00000110: a762 563d d091 9a3d e324 543d c255 3abd
00000120: 7a45 7e3d e455 26bd 340c d33c 0398 4d3d
00000130: 5943 033d 4073 48bd e8c0 87bd 4cfe 183d
00000140: 6bf9 25bd e137 7c3d 2d40 63bd e88d 08bd
00000150: 12d6 8abd 3d7e 55bd c062 5f3d 260e efbc
00000160: 63b6 833d fc8a c0bc 92f0 583d a513 503d
00000170: da89 813d e5aa 8c3d 9cf1 b93c 1ae0 81bd
00000180: 67df 02ba f7bf 42bd 6e3a 50bd 8079 19bd
00000190: a796 9b3c 4023 ca3c 8da5 b63c 3ca5 52bd
000001a0: e3bf 333d 91a5 74bd 32e1 81bd 1796 5abd
000001b0: 2de3 933c 942e 673d dfe2 883d 7469 c73c
000001c0: 90f3 77bd e8ad abbc 49ef febc 2735 6338
000001d0: ac08 2d3d ef40 1bbc 411a 953a 853e f2bc
000001e0: fc96 9cbc f2a1 e33c cde1 31bb 7a61 79bd
000001f0: 9de4 023d 3d17 0bbb 8a3c 8e3c e2d0 65bd
00000200: 5631 c13c 9ad7 be3c f2ea 13bd cee7 833d
00000210: 619e 213d c096 1dbd 1f74 6b3d 7c3e 78bd
00000220: a628 703d b1d0 5d3d fde2 8abd 7531 8c3d
00000230: 5058 993c 6a63 aa3c 16b5 c03c 682f 7ebd
00000240: cac8 1ebc c692 093c d0e3 b73c 1078 043d
00000250: 5ea4 0e3d eab6 913c 8f0a 0cbd b29f 853b
00000260: 1fdf 813d ae67 673d 649a 8a3d 2941 2b3d
00000270: 09f7 4b3d b1e1 473d 5a11 343d 7c20 803d
00000280: 6c9e 233d 88d3 47bd 6517 36bd fa15 f0bb
00000290: eba7 8a3d 01a6 773d eb68 bdbc aefb 0c3d
000002a0: 1b2d 36bd 39c7 25bd b79d 613d 7be2 6f3d
000002b0: 313f 55bd 4518 1d3d f80f e3ba b592 b5bc
000002c0: 79ce 4cbd 25e8 07bd 14d9 ac3c 5f96 03bd
000002d0: 13dc d83c 77a5 8fbd 9fe1 52bb a870 e93b
000002e0: e19e 003d c147 80bd d6df 423d aeb3 413d
000002f0: 2c27 4a3d dd64 513d f13f c43c 287c df3c
00000300: 05f7 d7bc 7b2a d9bc b063 533c 605e 4b3d
00000310: 9647 10bc 5028 78bd 8c82 1f3d d99e 8f3d
00000320: ae0c 1b3c d91c 2ebd a688 83bd 4846 ae3b
00000330: b514 c23c 8061 ccbb 58d0 d83b e4ef 3abc
00000340: 844c 74bd ace1 393d b268 e2bc f6fa 4bbc
00000350: c532 3e3d 22df 353d c5a2 6d3c ef24 82bc
00000360: 2b11 edbc 144b 79bd b0cc 51bd e3b5 ea3b
00000370: fef5 d9bc 58d5 053d 7300 b43b 8af1 ff3c
00000380: a529 9a3c a7d1 a0bc 4f6b 17bd 2b4c 08bd
00000390: ab41 89bc c7cc 5bbd ac3d 693d d3d1 3d3d
000003a0: 285c 39bd 4a87 663d 9a5c 52bd 8f33 3dbc
000003b0: b005 85bd dcc1 53bc df89 523d 8d72 d33a
000003c0: 4209 e93c a919 493d ec51 4fbd 7b5f 10bd
000003d0: af4e 5fbd 21e7 833d da09 763d 70a4 983d
000003e0: c8db 69bd a18b 1b3d 14c6 6ebd d920 2b3c
000003f0: acaf 8ebd 3c6c 613d b51b b4bd 93d7 a9bd

decoder.0.bias f4 [8]
-0.013616165 -0.010070974 0.019698402 0.10492328 0.11671294 0.03235215 0.01599942 -0.07806998
00000000: 5616 5fbc ba00 25bc 8b5e a13c 04e2 d63d
00000010: 3207 ef3d b083 043d 3711 833c 27e3 9fbd

decoder.2.weight f4 [8, 1, 5, 5]
0.17802024 -0.07140798 0.14343902 0.031899434 -0.11038433 -0.037116785 0.15396412 -0.035896007
0.21088718 -0.15095086 0.098134585 0.03495826 -0.045389548 -0.03455238 -0.11762858 -0.010302875
-0.19146693 -0.019747676 0.0055619935 0.0119926175 -0.22750093 0.13275962 -0.09991275 0.13331012
-0.25165427 0.09779696 0.008446556 0.04276588 -0.16877013 -0.179074 0.029441627 0.03852744
-0.121143706 -0.0243876 -0.15539841 0.16378114 0.22214182 0.11610724 0.12036862 -0.06043034
-0.12836868 -0.1417241 0.004108684 0.042251755 -0.06396201 0.14484428 -0.12303255 -0.14403313
-0.13279559 0.039935358 0.011250335 0.046324342 0.26078212 0.21757652 0.086592436 0.13264044
0.30309916 0.3227338 0.11444983 -0.032873046 0.10970068 0.036992956 -0.0025870812 0.12863627
0.062109135 -0.16446055 0.002126563 0.14250535 0.18173538 0.03196744 -0.13148509 -0.028158937
0.083321534 -0.16772172 -0.062593766 -0.15531774 0.029267963 -0.2638824 0.058997706 -0.029435562
-0.2002069 -0.2056519 0.07636184 -0.15764286 0.12833391 0.0015223072 0.1446787 -0.024611523
0.05411424 -0.06841982 -0.20891324 -0.12351644 0.16037369 -0.13610889 -0.08890304 -0.030405182
-0.08148507 -0.10286857 -0.059479937 -0.11985478 0.06607641 -0.13478291 0.05052999 -0.17921144
0.077767655 0.004721625 -0.09036105 -0.26669005 -0.048921667 -0.18702099 -0.13611409 -0.13612157
-0.06508718 -0.25260362 0.12167507 -0.056268897 -0.051312964 0.138579 -0.21523528 0.025999833
0.029673928 -0.077511095 -0.15851234 -0.034178644 -0.09489791 0.033404045 -0.16972114 0.1214459
-0.15325561 -0.25290218 0.14177026 0.11889133 0.16526271 -0.25750875 0.047023468 0.17309996
0.043831952 0.057940703 -0.117696136 -0.15508007 -0.010285341 -0.075575076 -0.19430561 -0.075144716
-0.14835683 -0.24412487 0.12161702 -0.092748374 -0.12583517 0.121062696 0.1162374 -0.13993682
-0.19240752 0.123388186 -0.015513569 0.14022276 0.1655835 0.0034645516 0.07652889 -0.09738964
-0.15951353 0.11257742 0.19491461 0.038143653 0.07070075 -0.068183206 0.028996062 -0.13285372
-0.066227816 -0.059594356 -0.024836874 -0.13442159 -0.047065977 0.073263936 0.058236692 0.07104857
-0.027942888 -0.06600776 -0.11276958 0.027688146 0.028714413 0.1602658 0.09382048 0.13986401
0.15783183 -0.05340642 -0.1545417 -0.12970792 -0.16197394 0.00985181 -0.15645267 -0.041397564
-0.107322626 0.15253597 0.061475914 0.17003284 0.1295974 -0.09999428 0.18632343 0.16227782
00000000: f04a 363e 593e 92bd aee1 123e fba8 023d
00000010: 2e11 e2bd c507 18bd c5a8 1d3e b107 13bd
00000020: cff2 573e dd92 1abe c9fa c83d 6430 0f3d
00000030: 64ea 39bd cc86 0dbd 41e7 f0bd 64cd 28bc
00000040: e80f 44be e1c5 a1bc 6241 b63b af7c 443c
00000050: 01f6 68be 23f2 073e 0e9f ccbd 7382 083e
00000060: d4d8 80be c649 c83d 6c63 0a3c 462b 2f3d
00000070: 14d2 2cbe 2d5f 37be 912f f13c f3ce 1d3d
00000080: 311a f8bd 81c8 c7bc c320 1fbe 3eb6 273e
00000090: 2579 633e a2c9 ed3d d383 f63d ce85 77bd
000000a0: 1473 03be 1f20 11be 24a2 863b 2d10 2d3d
000000b0: 84fe 82bd 0f52 143e 7df8 fbbd 6c7d 13be
000000c0: 91fb 07be 4293 233d 5353 383c 98be 3d3d
000000d0: 3c85 853e 61cc 5e3e 6057 b13d e5d2 073e
000000e0: d02f 9b3e 5d3d a53e ac64 ea3d e3a5 06bd
000000f0: c0aa e03d ed85 173d 058c 29bb 3ab9 033e
00000100: 2666 7e3d 5968 28be cf5d 0b3b ecec 113e
00000110: d718 3a3e 4af0 023d 07a4 06be 92ad e6bc
00000120: 7ba4 aa3d 3ebf 2bbe 2931 80bd 9d0b 1fbe
00000130: 5ec3 ef3c 981b 87be 94a7 713d d922 f1bc
00000140: 0a03 4dbe 6996 52be 9963 9c3d 216d 21be
00000150: f769 033e 2788 c73a a726 143e 1b9e c9bc
00000160: e5a6 5d3d b11f 8cbd 5aed 55be 30f6 fcbd
00000170: 0039 243e 2160 0bbe cc12 b6bd 4a14 f9bc
00000180: a5e1 a6bd c2ac d2bd 3ca1 73bd 6c76 f5bd
00000190: 1253 873d 8804 0abe 89f8 4e3d 3483 37be
000001a0: a644 9f3d dcb7 9a3b 370f b9bd 998b 88be
000001b0: 1662 48bd 6e82 3fbe 7e61 0bbe 7463 0bbe
000001c0: 6d4c 85bd 4355 81be c730 f93d 377a 66bd
000001d0: 8b2d 52bd a7e7 0d3e a366 5cbe 9afd d43c
000001e0: bd16 f33c 23be 9ebd 0f51 22be e8fe 0bbd
000001f0: d659 c2bd aed2 083d 61cb 2dbe a1b8 f83d
00000200: 0aef 1cbe 657c 81be 392c 113e 4c7d f33d
00000210: a13a 293e 30d8 83be ae9b 403d 1e41 313e
00000220: 2289 333d 3b53 6d3d ac0a f1bd 4fcd 1ebe
00000230: d983 28bc 1bc7 9abd 0df8 46be 79e5 99bd
00000240: daea 17be dffb 79be 5812 f93d dcf2 bdbd
00000250: efda 00be b8ef f73d e00d ee3d 994b 0fbe
00000260: 7a06 45be f2b2 fc3d a02c 7ebc 8e96 0f3e
00000270: b98e 293e 880d 633b 2ebb 9c3d 3874 c7bd
00000280: 8457 23be fe8e e63d b297 473e 853c 1c3d
00000290: 8ecb 903d a3a3 8bbd 2689 ed3c ce0a 08be
000002a0: 73a2 87bd 3619 74bd b376 cbbc d0a5 09be
000002b0: 41c8 40bd 670b 963d 9989 6e3d ea81 913d
000002c0: 7ce8 e4bc 142f 87bd bdf3 e6bd 40d2 e23c
000002d0: 7d3a eb3c b81c 243e f424 c03d 8338 0f3e
000002e0: ab9e 213e b1c0 5abd 2e40 1ebe 27d2 04be
000002f0: 7fdc 25be 7c69 213c 2135 20be 7e90 29bd
00000300: f7cb dbbd 6432 1c3e 2bce 7b3d 171d 2e3e
00000310: 2eb5 043e cdc9 ccbd 92cb 3e3e 282c 263e
