mnist_conv_autoencoder_weights.pth (torch, 30932 bytes, 7 tensors)

encoder.0.weight f4 [8, 1, 5, 5]
0.03606931 0.16473465 -0.038513467 0.021283591 -0.09190634 -0.09763335 -0.103208624 0.11679402
0.15092221 -0.104192965 -0.04692165 0.2117566 -0.13568962 0.08902743 0.12456305 -0.09384471
0.053822793 0.103137664 -0.088379465 -0.07696181 0.12787376 -0.08050585 0.005478407 -0.04682438
-0.0837108 0.08165335 -0.17194548 0.20258464 0.059310116 -0.18318155 0.099883586 0.11075341
-0.057620257 -0.058063123 -0.11191342 0.19521756 -0.078033686 0.13117792 0.019652294 -0.017286753
0.083006404 0.12604968 0.14003937 0.044301827 -0.10263241 -0.14359322 0.19173992 0.06360964
0.1169704 0.13096459 -0.07062679 -0.012009128 -0.02006419 0.019627027 0.120028034 -0.18572983
0.07365444 -0.018414782 -0.04579551 -0.16984427 -0.047965016 0.04671472 -0.02737245 -0.20247893
0.019571591 0.18037826 -0.12311942 -0.059618708 0.09180932 0.1068637 0.15354845 0.12228613
-0.15315259 -0.039165325 0.07551481 -0.17293973 0.019361764 -0.1867467 -0.17004581 -0.073627755
-0.21861668 -0.034259338 -0.20053847 0.08546343 -0.18145882 -0.094983056 -0.11444677 -0.063419156
0.029696273 -0.09922494 0.063723505 -0.12121309 -0.18310246 -0.13202395 -0.20398025 0.018561265
0.12884414 0.08854844 -0.07364074 0.10687476 0.011196225 0.0071156905 0.18352191 0.10998755
0.06552464 -0.17515834 -0.14714748 -0.0136279315 -0.19221815 -0.14823653 -0.031455602 0.005244167
-0.043877207 -0.02738918 0.18113773 0.11356621 -0.09626917 -0.1402166 0.17662701 -0.1758637
0.072524294 0.17279325 0.018666582 0.114430636 0.17236418 0.13009994 -0.0035326618 0.095518224
0.1788665 0.010946771 -0.10656083 -0.07897832 0.13533388 0.051577985 -0.18300855 0.076871276
0.039340157 0.109504856 0.12162814 -0.17780687 0.159044 0.16951029 -0.09266002 0.078424536
0.09041991 -0.041002944 0.14023052 -0.20471297 0.017774634 -0.08544165 0.028219983 -0.008952895
0.18073046 -0.08154768 0.060243197 -0.013819235 0.111089006 -0.12737697 -0.18072228 0.20345889
-0.17547579 0.19375685 -0.19717376 -0.107028306 0.11017976 -0.06365834 0.16858606 -0.17990431
0.16651678 0.119290754 0.0071929726 -0.08544242 0.13437876 -0.1461367 -0.19633104 0.043216817
-0.15205418 -0.15828617 0.18626362 -0.0288096 0.042678986 -0.12658486 -0.10666945 0.1663968
0.0032263363 0.162717 -0.092815354 0.04319386 -0.20362365 -0.09756655 -0.036359806 -0.08664662
0.16148947 0.1753711 -0.041554637 -0.066130206 -0.19410866 0.08590846 -0.08449364 -0.051993895
00000000: 6abd 133d 33b0 283e 4cc0 1dbd ed5a ae3c
00000010: 6439 bcbd fef3 c7bd 0b5f d3bd b431 ef3d
00000020: 5a8b 1a3e 1f63 d5bd eb30 40bd b9d6 583e
00000030: 38f2 0abe 0354 b63d ea1a ff3d a831 c0bd
00000040: 4a75 5c3d d739 d33d 4b00 b5bd 279e 9dbd
00000050: 57f1 023e 40e0 a4bd 3584 b33b ecca 3fbd
00000060: 9170 abbd df39 a73d 7a12 30be 5972 4f3e
00000070: 2aef 723d f293 3bbe c48f cc3d afd2 e23d
00000080: 3803 6cbd 99d3 6dbd dd32 e5bd 1de7 473e
00000090: 20d0 9fbd 8153 063e d9fd a03c f39c 8dbc
000000a0: 43ff a93d 2b13 013e 7b66 0f3e d575 353d
000000b0: f130 d2bd 1a0a 13be 7857 443e c545 823d
000000c0: 2d8e ef3d 951b 063e c7a4 90bd efc1 44bc
000000d0: a85d a4bc dcc8 a03c 42d1 f53d f62f 3ebe
000000e0: 24d8 963d 99da 96bc 1394 3bbd a8eb 2dbe
000000f0: f776 44bd ef57 3f3d 303c e0bc a356 4fbe
00000100: 9a54 a03c 14b5 383e 0926 fcbd bf32 74bd
00000110: 8606 bc3d 5bdb da3d ce3b 1d3e 2771 fa3d
00000120: 08d4 1cbe d26b 20bd 82a7 9a3d 1d17 31be
00000130: 909c 9e3c 873a 3fbe 7d20 2ebe 26ca 96bd
00000140: 0ddd 5fbe 8553 0cbd f559 4dbe 7307 af3d
00000150: 57d0 39be 7a86 c2bd 1163 eabd e7e1 81bd
00000160: 9945 f33c 7236 cbbd 7881 823d 923e f8bd
00000170: 367f 3bbe 4931 07be 33e0 50be cb0d 983c
00000180: b8ef 033e e258 b53d f5d0 96bd 27e1 da3d
00000190: 5f70 373c bd2a e93b 2bed 3b3e 2741 e13d
000001a0: c831 863d b55c 33be d4ad 16be b047 5fbc
000001b0: d6d4 44be 51cb 17be 97d7 00bd 43d7 ab3b
000001c0: 96b8 33bd 465f e0bc 2b7c 393e 6795 e83d
000001d0: c528 c5bd f194 0fbe b6dd 343e 9d15 34be
000001e0: 9e87 943d b7f0 303e a9ea 983c 9c5a ea3d
000001f0: 3c80 303e eb38 053e 3b84 67bb 0f9f c33d
00000200: c828 373e 165a 333c 903c dabd 63bf a1bd
00000210: f794 0a3e 7043 533d 9866 3bbe b06e 9d3d
00000220: 2523 213d 1544 e03d 2d18 f93d 0113 36be
00000230: 6edc 223e 1b94 2d3e 89c4 bdbd 0b9d a03d
00000240: 132e b93d b4f2 27bd 9798 0f3e 47a0 51be
00000250: 1c9c 913c 08fc aebd 982d e73c 2aaf 12bc
00000260: 6811 393e 7802 a7bd 92c1 763d 136a 62bc
00000270: a282 e33d 1c6f 02be 430f 39be 8757 503e
00000280: edaf 33be 3268 463e ebe7 49be a831 dbbd
00000290: eda5 e13d 4e5f 82bd d3a1 2c3e d638 38be
000002a0: 6083 2a3e b64e f43d 07b3 eb3b 6ffc aebd
000002b0: 969a 093e dca4 15be 010b 49be 1e04 313d
000002c0: 17b4 1bbe c515 22be e4bb 3e3e 1c02 ecbc
000002d0: 29d0 2e3d 769f 01be 8375 dabd ec63 2a3e
000002e0: f170 533b 499f 263e fa15 bebd 0cec 303d
000002f0: b882 50be f9d0 c7bd 05ee 14bd c873 b1bd
00000300: 7f5d 253e 7b94 333e 3235 2abd 466f 87bd
00000310: 6cc4 46be c6f0 af3d 000b adbd 8df7 54bd

encoder.0.bias f4 [8]
0.11491875 0.018200874 0.0043421816 0.030780518 0.14572878 -0.12906756 -0.13150445 0.06742917
00000000: 865a eb3d 001a 953c dc48 8e3b 6d27 fc3c
00000010: ed39 153e 492a 04be 1aa9 06be 4e18 8a3d

encoder.2.weight f4 [16, 8, 5, 5]
0.01808861 0.0020628925 -0.04839956 0.032790817 -0.029808745 -0.026094804 -0.022879617 -0.047885988
0.035735406 0.061836317 0.00089396344 -0.060307477 -0.0047173314 -0.034323785 -0.058121867 0.004499591
0.0001258364 0.011095108 0.020022575 -0.054834567 -0.019566387 0.021321101 -0.022554016 -0.06415438
0.06551754 0.0047672885 0.019598922 -0.058140058 0.049948316 -0.017779196 -0.059507072 0.04059547
-0.050440572 0.053293873 -0.021191932 0.056787156 0.028737469 0.06357423 0.020402743 0.036745556
0.04681951 0.010188528 -0.016218657 -0.041696113 0.019374155 0.036739025 0.010050344 0.038674474
0.05053238 -0.030771527 -0.060597252 -0.03136349 0.0067331195 0.0031752249 -0.025341487 0.019032285
0.046046544 -0.041733366 0.03806961 -0.021106618 -0.04983667 -0.019738883 -0.037986424 -0.061394416
0.054732658 0.057804715 -0.053393185 -0.034973916 0.019583471 -0.057051294 0.051756427 0.03699439
-0.029870464 0.03275143 -0.046529405 0.0055035474 -0.039788194 0.031536486 0.004009125 0.017232928
-0.035948355 -0.05061188 -0.041521132 -0.058462635 -0.020178102 -0.06930468 0.0077922177 -0.017198715
0.018502627 -0.032945976 0.029501347 -0.040100317 -0.02706576 -0.0368063 -0.037667472 0.017959995
-0.015387513 -0.037877403 -0.012062336 -0.032757066 0.031663574 0.031500936 0.031250726 -0.035981443
-0.042166114 -8.527966e-05 -0.038808446 -0.054881617 -0.01305188 -0.015513034 -0.041817676 0.059110288
-0.03536162 -0.032037266 -0.03012936 0.02636613 0.018276513 0.05216057 -0.0660218 0.059384186
0.024555797 0.037863474 0.051015675 0.058666136 -0.008433932 0.014086 -0.06386402 -0.03315188
0.053880304 0.051110905 0.06302717 -0.020634802 -0.03633489 -0.055315163 -0.02041995 0.061989248
0.036954504 0.05331703 -0.016442735 -0.033681113 0.014489296 -0.035794202 0.017309103 -0.057470754
-0.0177622 -0.03167541 -0.009910953 -0.043886077 0.018946065 0.037568916 0.06436191 0.06409058
0.030436214 -0.029003032 -0.051989373 0.046055578 0.012562592 -0.044647105 0.010320962 0.049190853
-0.03004589 0.06653861 -0.048515957 0.042916223 0.055371735 0.03853765 0.02951281 0.013303355
-0.04528607 -0.03238389 -0.016159393 -0.06675634 0.037013937 0.059853394 0.06757553 0.053833134
-0.052625112 -0.051087108 0.033068612 0.042939007 -0.060728353 -0.011635576 -0.03129818 -0.04153152
0.0001234255 0.013020797 -0.059414875 0.06824949 -0.06606167 0.0050669205 -0.054840848 -0.059878327
0.056719355 0.028468689 0.05248193 0.058828004 0.0086960215 -0.052671045 0.07078027 -0.049621955
0.04124521 0.06900471 -0.038418245 0.020963939 0.020034853 -0.0028548108 -0.04421362 -0.06120952
0.03725734 0.059983924 -0.03246788 0.025460305 -0.03435307 0.027328203 0.05191182 -0.031399008
-0.018609278 0.0016811527 -0.05565104 0.029935418 0.04773259 0.06249135 0.019035535 0.0026198383
0.027642874 -0.012957106 0.06488442 0.040239237 0.038397096 0.019573303 -0.063176885 -0.059547327
0.054839447 -0.03785399 0.034147814 0.021184033 -0.042716846 0.0056839334 -0.050879747 -0.002381015
-0.062600955 0.062582694 -0.069348134 -0.05033586 0.031744562 -0.04529842 -0.029871134 -0.05478157
-0.06058373 0.033241138 -0.0026350438 0.017138625 0.0645439 -0.016214203 -0.009189151 -0.022851314
00000000: 912e 943c 9831 073b 9e3e 46bd aa4f 063d
00000010: 7831 f4bc c5c4 d5bc 096e bbbc 1924 44bd
00000020: 4a5f 123d 1448 7d3d df58 6a3a f904 77bd
00000030: d893 9abb 1997 0cbd 3211 6ebd 4e71 933b
00000040: f4f2 0339 42c8 353c 6206 a43c 369a 60bd
00000050: b049 a0bc 97a9 ae3c 33c3 b8bc 5f63 83bd
00000060: 0f2e 863d ea36 9c3b eb8d a03c 4524 6ebd
00000070: 9b96 4c3d ada5 91bc b0bd 73bd 7047 263d
00000080: c69a 4ebd ad4a 5a3d b49a adbc a699 683d
00000090: d76a eb3c 3533 823d a723 a73c 8282 163d
000000a0: d1c5 3f3d c9ed 263c fddc 84bc 8bc9 2abd
000000b0: 8cb6 9e3c a97b 163d 33aa 243c 2069 1e3d
000000c0: 0afb 4e3d 9214 fcbc d334 78bd 0177 00bd
000000d0: 80a1 dc3b 6f17 503b f398 cfbc 98e9 9b3c
000000e0: 4d9b 3c3d 9bf0 2abd e1ee 1b3d c9e7 acbc
000000f0: 8921 4cbd 70b3 a1bc a797 1bbd b678 7bbd
00000100: 5a2f 603d a3c4 6c3d d0b2 5abd cf40 0fbd
00000110: 846d a03c 9eae 69bd 8cfe 533d 6e87 173d
00000120: e7b2 f4bc 5d26 063d 9e95 3ebd 1a57 b43b
00000130: f2f8 22bd 672c 013d fa5e 833b 122c 8d3c
00000140: 953e 13bd 674e 4fbd 1012 2abd 8476 6fbd
00000150: 8c4c a5bc 9def 8dbd dc55 ff3b 52e4 8cbc
00000160: d292 973c 5cf2 06bd cfac f13c 3b40 24bd
00000170: 03b9 ddbc 34c2 16bd 3549 1abd d720 933c
00000180: e81b 7cbc 5625 1bbd 1ba1 45bc 462c 06bd
00000190: aab1 013d 2007 013d c300 003d 4761 13bd
000001a0: 60b6 2cbd 2bd8 b2b8 9bf5 1ebd 8ccb 60bd
000001b0: 8dd7 55bc 612a 7ebc 0349 2bbd a11d 723d
000001c0: 59d7 10bd 8239 03bd d9d1 f6bc c8fd d73c
000001d0: a0b8 953c 52a6 553d 7036 87bd d53c 733d
000001e0: 3d29 c93c bb16 1b3d d0f5 503d e74b 703d
000001f0: 7a2e 0abc f7c8 663c 24cb 82bd 44ca 07bd
00000200: 98b1 5c3d ab59 513d 6414 813d 510a a9bc
00000210: e5d3 14bd 2792 62bd bd47 a7bc 70e8 7d3d
00000220: 9b5d 173d f562 5a3d eab2 86bc 35f5 09bd
00000230: 8364 6d3c f19c 12bd d2cb 8d3c 7466 6bbd
00000240: 0982 91bc 13be 01bd 8d61 22bc e3c1 33bd
00000250: c734 9b3c dde1 193d 2dd0 833d ec41 833d
00000260: 5e55 f93c c497 edbc cff2 54bd c6a4 3c3d
00000270: 54d3 4d3c e2df 36bd 4119 293c 597c 493d
00000280: cc22 f6bc 6545 883d abb8 46bd ecc8 2f3d
00000290: 79cd 623d a8d9 1d3d d9c4 f13c 51f6 593c
000002a0: e37d 39bd f8a4 04bd b460 84bc 8cb7 88bd
000002b0: ed9b 173d d528 753d 0a65 8a3d 2280 5c3d
000002c0: 6e8d 57bd b740 51bd f472 073d d0e0 2f3d
000002d0: 4bbe 78bd 25a3 3ebc 8532 00bd f51c 2abd
000002e0: c86b 0139 2e55 553c 035d 73bd 63c6 8b3d
000002f0: 574b 87bd 6908 a63b cca0 60bd fa42 75bd
00000300: 8e52 683d 2b37 e93c 4bf7 563d a2f5 703d
00000310: c279 0e3c 98bd 57bd 3ff5 903d 6440 4bbd
00000320: bdf0 283d 5752 8d3d 735c 1dbd 91bc ab3c
00000330: 2220 a43c c717 3bbb 5719 35bd d5b6 7abd
00000340: 279b 183d b4b1 753d 0afd 04bd 2192 d03c
00000350: ceb5 0cbd 65df df3c 7da1 543d 3f9c 00bd
00000360: 7c72 98bc 205a dc3a 58f2 63bd 1f3b f53c
00000370: 4083 433d eef6 7f3d 69f0 9b3c 98b1 2b3b
00000380: 4f73 e23c 0b4a 54bc 1fe2 843d e6d1 243d
00000390: 4646 1d3d 3158 a03c e262 81bd e6e7 73bd
000003a0: 549f 603d c90c 1bbd 94de 0b3d 238a ad3c
000003b0: dcf7 2ebd 4a40 ba3b 4867 50bd ce0a 1cbb
000003c0: ee34 80bd 5b2b 803d 6506 8ebd fa2c 4ebd
000003d0: 9606 023d d68a 39bd 4fb4 f4bc a462 60bd
000003e0: a526 78bd dc27 083d b3b0 2cbb 4d66 8c3c
000003f0: 982f 843d a6d3 84bc 188e 16bc ae32 bbbc

encoder.2.bias f4 [16]
-0.036930867 0.060699023 0.10086781 -0.03298266 0.055591796 0.049418252 0.0076387445 -0.05673861
0.05227319 1.5726568e-05 0.048958417 -0.053423297 0.005859793 -0.0042073196 -0.06351977 -0.06601126
00000000: d244 17bd 8a9f 783d c893 ce3d d318 07bd
00000010: 39b4 633d cb6a 4a3d 6f4e fa3b bf66 68bd
00000020: 6a1c 563d 8cec 8337 9f88 483d 63d2 5abd
00000030: 8203 c03b 8edd 89bb a716 82bd e930 87bd

decoder.0.weight f4 [16, 8, 5, 5]
0.061541017 -0.049811408 -0.06850413 0.006757212 -0.045572374 -0.06916549 -0.04606935 0.016333751
0.048564244 0.050029434 -0.02098238 -0.04402933 0.04560457 -0.05908329 0.054280777 -0.052126344
-0.0582423 -0.046201915 -0.0073036877 -0.020308718 -0.016147695 0.051855557 0.06861349 -0.024122976
0.060592655 0.0021273748 -0.026400374 -0.056008432 -0.015924988 0.0425295 0.014038601 0.069139734
-0.039069735 0.06651893 0.018300194 0.0044152215 0.064636365 0.024281979 -0.06027848 -0.027657636
-0.04433489 0.0650086 -0.019217562 0.0031971445 0.008127032 0.04068335 0.051684964 -0.06351623
-0.05374514 -0.04064291 -0.04276786 5.4619377e-05 -0.007894542 -0.009563944 -0.040587872 -0.013772287
-0.009374855 -0.06730617 0.06342249 0.030692812 0.061457336 -0.037155937 -0.022558087 -0.04471977
0.07066627 -0.0006973317 -0.06992769 -0.060080733 0.036871284 0.013341322 0.007553593 -0.04033604
0.06532558 -0.0341083 -0.00085294136 -0.040957723 -0.055030182 -0.07011941 0.06483536 -0.06492026
-0.0036011222 0.04960836 0.034254376 -0.038088545 0.012054204 0.04341473 0.04270843 0.0002750502
-0.052578337 -0.049360428 -0.06874949 0.02240146 0.02241242 -0.036334313 -0.040826716 0.032727275
-0.039251022 0.026958868 0.018390065 -0.013627418 0.02986145 0.065719046 0.07059144 0.03780152
0.06220689 0.05274113 0.013068669 0.00058157154 -0.038412437 0.019335955 -0.025750086 0.063070916
0.046645164 0.0332458 -0.04715778 -0.06170552 0.04524311 0.011823612 0.028686877 0.005893122
0.044477195 0.04681274 0.06948293 0.032930534 -0.004222068 -0.009290669 -0.06287525 -0.017642936
-0.07083077 0.053552736 0.0024724856 0.03437213 0.0013770121 -0.067456074 -0.0471927 0.05062093
-0.03877004 -0.051379133 0.034777768 -0.05648612 -0.066336416 0.014616568 0.0017586041 -0.06505963
0.040966675 -0.061563186 0.049206182 -0.06133898 -0.039792567 -0.020523377 0.04036388 0.057716873
0.067398064 -0.043682348 -0.03053551 0.011105093 -0.0148652475 -0.011380616 -0.0077238693 -0.06769291
0.053093426 -0.06410925 -0.010806694 0.06566843 0.0163511 -0.04248039 0.057075895 0.0058880076
-0.061585106 0.01638159 -0.016386522 0.026722653 -0.0038017158 -0.054774858 0.025141982 -0.04514386
0.045054488 -0.06424818 0.047456358 0.010219304 0.06557561 0.044131767 0.029085213 -0.031476423
-0.022058628 -0.023076698 0.06566714 -0.0055099423 0.06815179 0.025429474 -0.045822 0.019439284
0.007875857 -0.042900868 -0.021944107 -0.025803363 0.057707515 0.02411948 -0.02725745 0.014816958
0.046375185 -0.0017279623 0.003407877 0.022920514 -0.00010094782 0.02492963 0.019373205 -0.0046701287
0.021456871 0.056313816 -0.03167733 -0.032625344 -0.053200457 0.031140331 -0.0018823778 0.023221143
-0.0511764 -0.045877054 -0.056432255 0.02091109 -0.055351224 0.006210896 -0.056109663 -0.009003957
-0.019047655 -0.06380998 -0.06173884 0.037839126 -0.043445814 -0.040467277 -0.015512433 0.04646547
-0.014498744 -0.062406227 0.017240234 0.005234713 -0.026301762 0.04368906 0.0013250435 0.008537348
-0.055726882 -0.06873446 -0.056487966 0.026809556 0.010796607 -0.07161719 0.058180705 0.019428153
-0.028670445 -0.04521986 0.014611685 -0.017500727 -0.013887009 0.02665995 0.05809332 -0.02512402
00000000: 6f12 7c3d 0c07 4cbd e54b 8cbd 9a6b dd3b
00000010: 19aa 3abd a3a6 8dbd 37b3 3cbd 5cce 853c
00000020: 4deb 463d aaeb 4c3d 3de3 abbc 1958 34bd
00000030: dccb 3a3d 5201 72bd 8555 5e3d 6f82 55bd
00000040: 7a8f 6ebd 383e 3dbd c653 efbb 785e a6bc
00000050: 2c48 84bc 7e66 543d 3b85 8c3d 8c9d c5bc
00000060: 0130 783d 6d6b 0b3b 9945 d8bc 1969 65bd
00000070: 1f75 82bc 6a33 2e3d 2902 663c 2299 8d3d
00000080: 9607 20bd 143b 883d 4aea 953c 90ad 903b
00000090: 1260 843d 00eb c63c 91e6 76bd 4492 e2bc
000000a0: 8098 35bd 3b23 853d 266e 9dbc 2f87 513b
000000b0: 3e27 053c 96a3 263d 9db3 533d cc14 82bd
000000c0: dd23 5cbd 2e79 26bd 5a2d 2fbd 1c17 6538
000000d0: 1c58 01bc 17b2 1cbc 783f 26bd 29a5 61bc
000000e0: fe98 19bc d1d7 89bd a7e3 813d 7e6f fb3c
000000f0: b0ba 7b3d d330 18bd bdcb b8bc 142c 37bd
00000100: 7ab9 903d 23cd 36ba 4036 8fbd 3717 76bd
00000110: 5806 173d 8f95 5a3c 2184 f73b 6737 25bd
00000120: 6bc9 853d 25b5 0bbd ed97 5fba 49c3 27bd
00000130: 5467 61bd c49a 8fbd 67c8 843d eaf4 84bd
00000140: ce00 6cbb 2332 4b3d 514e 0c3d bc02 1cbd
00000150: ff7e 453c a5d3 313d 09ef 2e3d 9d34 9039
00000160: 625c 57bd 292e 4abd 88cc 8cbd 4483 b73c
00000170: 409a b73c 4ad3 14bd ea39 27bd 090d 063d
00000180: aec5 20bd d8d8 dc3c c3a6 963c 8945 5fbc
00000190: 00a0 f43c b597 863d 3f92 903d c4d5 1a3d
000001a0: a7cc 7e3d 1507 583d f81d 563c 9b74 183a
000001b0: 5c56 1dbd 7066 9e3c d8f1 d2bc 532b 813d
000001c0: 000f 3f3d bf2c 083d 8428 41bd edbe 7cbd
000001d0: d750 393d d3b7 413c be00 eb3c 171b c13b
000001e0: b82d 363d b7be 3f3d 114d 8e3d 2be2 063d
000001f0: 4659 8abb e437 18bc bdc4 80bd eb87 90bc
00000200: b90f 91bd 1d5a 5b3d 6d09 223b cac9 0c3d
00000210: dc7c b43a 6926 8abd 224d 41bd e457 4f3d
00000220: 55cd 1ebd ed72 52bd 2273 0e3d fd5d 67bd
00000230: 63db 87bd 547a 6f3c f680 e63a fc3d 85bd
00000240: accc 273d ae29 7cbd 6c8c 493d 953e 7bbd
00000250: 88fd 22bd a420 a8bc 9954 253d 8768 6c3d
00000260: ff07 8a3d 43ec 32bd 9b25 fabc 23f2 353c
00000270: 5e8d 73bc c375 3abc 8318 fdbb 95a2 8abd
00000280: 7e78 593d b64b 83bd 8f0e 31bc 2b7d 863d
00000290: bef2 853c ebff 2dbd 6ac8 693d 30f0 c03b
000002a0: aa40 7cbd af32 863c 073d 86bc 77e9 da3c
000002b0: 3526 79bb 9a5b 60bd 8ff6 cd3c c5e8 38bd
000002c0: 0e8b 383d 8d94 83bd 9961 423d de6e 273c
000002d0: 814c 863d 83c3 343d 1d44 ee3c 6ced 00bd
000002e0: 4cb4 b4bc 580b bdbc 7e7c 863d bf8c b4bb
000002f0: 2a93 8b3d 7951 d03c d9af 3bbd 223f 9f3c
00000300: bd09 013c d2b8 2fbd 21c4 b3bc 9361 d3bc
00000310: b75e 6c3d 3796 c53c 044b dfbc d4c2 723c
00000320: e8f3 3d3d cb7c e2ba b056 5f3b cdc3 bb3c
00000330: f3b3 d3b8 3939 cc3c 8eb4 9e3c e107 99bb
00000340: 52c6 af3c 51a9 663d 17c0 01bd 27a2 05bd
00000350: b9e8 59bd 021a ff3c 1eba f6ba 443a be3c
00000360: 589e 51bd 94e9 3bbd 8225 67bd bc4d ab3c
00000370: f7b7 62bd c684 cb3b 3fd3 65bd 5585 13bc
00000380: d409 9cbc cfae 82bd dee1 7cbd 33fd 1a3d
00000390: 3df4 31bd 04c1 25bd dc27 7ebc 9452 3e3d
000003a0: 248c 6dbc ac9d 7fbd 643b 8d3c f587 ab3b
000003b0: cb76 d7bc 4df3 323d 15ad ad3a 3ce0 0b3c
000003c0: df41 64bd a7c4 8cbd ed5f 67bd b79f db3c
000003d0: 40e4 303c 09ac 92bd e44e 6e3d ca27 9f3c
000003e0: 48de eabc 7638 39bd d965 6f3c af5d 8fbc
000003f0: 5686 63bc f865 da3c 43f3 6d3d e4d0 cdbc

decoder.0.bias f4 [8]
0.029127454 -0.047882475 -0.06843731 0.083626755 -0.049630802 0.059293035 0.03620868 0.02753327
00000000: b39c ee3c 6a20 44bd dc28 8cbd 8144 ab3d
00000010: ab49 4bbd 41dd 723d 8e4f 143d 748d e13c

decoder.2.weight f4 [8, 1, 5, 5]
0.006591853 -0.018295774 -0.19658104 -0.107439384 -0.037037723 0.05093652 -0.02697211 0.17143103
-0.040336587 0.1687986 0.050710794 -0.047905933 -0.11659696 -0.09155286 0.09432964 -0.07889757
-0.12616928 -0.006725725 0.13702635 0.1416892 0.09604691 -0.0038578282 -0.11433478 0.11825783
0.20099635 -0.027079567 -0.056605123 -0.032021306 -0.1327624 -0.13429025 0.03882805 0.15018336
0.092263296 -0.21865223 0.048615817 0.09234746 -0.1355014 -0.17490287 -0.060818482 -0.09850436
0.072896704 -0.12607841 0.16186963 -0.048095684 -0.013555746 0.16178507 -0.14860009 -0.001289662
0.07013365 0.16818315 0.028303968 0.18545808 -0.19886088 -0.068436734 0.021356387 -0.12546268
0.14084925 -0.09669109 0.15169054 0.06794408 0.18860865 -0.020096356 -0.17950235 -0.08125993
0.0735981 -0.21094926 0.052181818 -0.16709548 -0.17409842 0.10560081 -0.19265704 0.17049463
-0.0087832045 0.089091614 -0.026350921 -0.19266456 0.0636774 0.036641594 -0.037205596 -0.22217363
0.16465554 0.13732421 -0.12485919 0.15657371 -0.20894077 -0.19458196 -0.17936456 0.151708
-0.0138111655 0.061766457 -0.20126925 -5.767219e-06 -0.19740328 -0.102258585 -0.09349498 -0.05111093
0.116745524 0.08513575 -0.17472525 -0.008152798 -0.11714968 0.19309796 0.11910428 0.12498101
0.18559967 0.07957946 -0.18884897 0.1450696 -0.17532419 0.06724178 -0.094676204 0.05474107
-0.036125906 0.026118735 0.08656651 0.1523978 0.004456644 -0.14566523 -0.14488564 0.06470275
0.12475162 0.011931285 0.17537181 0.08075549 -0.17315249 0.07407072 0.107943535 -0.0074885786
-0.10046455 -0.09723824 -0.20928015 0.13843516 -0.12517267 -0.075412795 0.12876438 -0.16448624
0.056954626 -0.191776 -0.13992833 -0.06473585 -0.15104064 -0.23349561 0.10600423 0.07278318
-0.021109322 -0.08202552 -0.18047974 -0.11106829 -0.05436177 -0.08585999 0.18141161 -0.13418373
-0.118517525 0.07412108 -0.12918405 -0.16020931 -0.13066737 0.0257302 -0.014659232 0.16760252
0.15693718 0.14765808 0.17629988 -0.06017799 -0.20730871 -0.092518024 -0.16435263 -0.17037205
0.14695415 -0.19391121 0.16282523 -0.014547202 -0.0046693156 0.10801951 0.1493648 0.090215944
-0.10414976 -0.06349749 0.15392105 0.18605877 -0.15275416 0.19212358 0.00066988944 -0.036130548
-0.116475075 -0.07425694 0.16349627 0.036751017 0.06168426 0.09331859 0.16589925 0.028314922
0.172317 0.108694434 0.022388734 -0.13135174 -0.19605762 0.11062457 0.07921376 -0.014087644
00000000: 7900 d83b 05e1 95bc 8a4c 49be 2e09 dcbd
00000010: deb4 17bd d0a2 503d 9df4 dcbc 9e8b 2f3e
00000020: fa37 25bd 8ad9 2c3e 1fb6 4f3d 0339 44bd
00000030: 63ca eebd 1180 bbbd e62f c13d 0d95 a1bd
00000040: 8532 01be 7863 dcbb a350 0c3e f916 113e
00000050: 3eb4 c43d 9ed3 7cbb 5a28 eabd 2931 f23d
00000060: fdd1 4d3e f8d5 ddbc c6da 67bd c628 03bd
00000070: def2 07be 6283 09be 290a 1f3d abc9 193e
00000080: 8af4 bc3d 5fe6 5fbe 6121 473d aa20 bd3d
00000090: e1c0 0abe bd19 33be cd1c 79bd a7bc c9bd
000000a0: de4a 953d b31a 01be 27c1 253e fbff 44bd
000000b0: eb18 5ebc fcaa 253e 9f2a 18be e009 a9ba
000000c0: 3ba2 8f3d 3438 2c3e b9dd e73c b9e8 3d3e
000000d0: 30a2 4bbe 8f28 8cbd 97f3 ae3c 4a79 00be
000000e0: c93a 103e fa05 c6bd c454 1b3e 4426 8b3d
000000f0: a022 413e 1da1 a4bc 77cf 37be 9b6b a6bd
00000100: 9aba 963d 1503 58be 9abc 553d 141b 2bbe
00000110: db46 32be 3d45 d83d e347 45be 2596 2e3e
00000120: 6ee7 0fbc aa75 b63d e3dd d7bc dc49 45be
00000130: 4c69 823d 7f15 163d e564 18bd 7c81 63be
00000140: 769b 283e b89e 0c3e 2db6 ffbd dc54 203e
00000150: 92f4 55be 7e40 47be 58ab 37be 5859 1b3e
00000160: 3a48 62bc d3fe 7c3d 8719 4ebe 0984 c1b6
00000170: 1624 4abe f36c d1bd 4c7a bfbd b259 51bd
00000180: 4718 ef3d a75b ae3d 2deb 32be 5093 05bc
00000190: 2cec efbd 79bb 453e f2ec f33d 0bf6 ff3d
000001a0: d70d 3e3e 8efa a23d a061 41be 208d 143e
000001b0: 2f88 33be 0fb6 893d 99e5 c1bd 2c38 603d
000001c0: c2f8 13bd f5f6 d53c c849 b13d 2b0e 1c3e
000001d0: 0a09 923b 4429 15be e75c 14be e082 843d
000001e0: c77d ff3d 707b 433c ab94 333e 2263 a53d
000001f0: e34e 31be 64b2 973d 8011 dd3d c062 f5bb
00000200: 5cc0 cdbd d824 c7bd 894d 56be f2c1 0d3e
00000210: 442d 00be 0672 9abd cfda 033e 156f 28be
00000220: 4149 693d ee60 44be 5f49 0fbe 3b94 84bd
00000230: 66aa 1abe 7919 6fbe bf18 d93d 590f 953d
00000240: 75ed acbc fffc a7bd aecf 38be c677 e3bd
00000250: 73aa 5ebd 5dd7 afbd f7c3 393e 7667 09be
00000260: 51b9 f2bd cbcc 973d d348 04be e90d 24be
00000270: abcd 05be 24c8 d23c 472d 70bc ff9f 2b3e
00000280: 24b4 203e ae33 173e f587 343e 327d 76bd
00000290: bc48 54be 177a bdbd 0e4c 28be 0376 2ebe
000002a0: 267b 163e a990 46be a8bb 263e 6357 6ebc
000002b0: 0f01 99bb 5539 dd3d 16f3 183e 23c3 b83d
000002c0: 784c d5bd f90a 82bd 7b9d 1d3e 3186 3e3e
000002d0: 966b 1cbe 0bbc 443e 859b 2f3a a0fd 13bd
000002e0: 7c8a eebd 0614 98bd 916b 273e 3c88 163d
000002f0: a2a8 7c3d d11d bf3d 7ee1 293e b2f4 e73c
00000300: de73 303e 309b de3d 9468 b73c 1281 06be
00000310: 54c3 48be 228f e23d d33a a23d ddcf 66bc
